Namespace(dataset='mnist', dataroot='./data/mnist', workers=0, batch_size=32, image_size=32, nc=1, nz=10, max_iter=500, lr=5e-05, gpu_device=0, netG='', netD='', Diters=5, experiment='mnist_mmd-gan')
Using MPS device
netG: NetG(
  (decoder): Decoder(
    (main): Sequential(
      (initial_conv_10_256): ConvTranspose2d(10, 256, kernel_size=(4, 4), stride=(1, 1), bias=False)
      (initial_bn_256): BatchNorm2d(256, eps=1e-05, momentum=0.1, affine=True, track_running_stats=True)
      (initial_relu_256): ReLU(inplace=True)
      (pyramid_conv_256_128): ConvTranspose2d(256, 128, kernel_size=(4, 4), stride=(2, 2), padding=(1, 1), bias=False)
      (pyramid_bn_128): BatchNorm2d(128, eps=1e-05, momentum=0.1, affine=True, track_running_stats=True)
      (pyramid_relu_128): ReLU(inplace=True)
      (pyramid_conv_128_64): ConvTranspose2d(128, 64, kernel_size=(4, 4), stride=(2, 2), padding=(1, 1), bias=False)
      (pyramid_bn_64): BatchNorm2d(64, eps=1e-05, momentum=0.1, affine=True, track_running_stats=True)
      (pyramid_relu_64): ReLU(inplace=True)
      (final_conv_64_1): ConvTranspose2d(64, 1, kernel_size=(4, 4), stride=(2, 2), padding=(1, 1), bias=False)
      (final_tanh_1): Tanh()
    )
  )
)
netD: NetD(
  (encoder): Encoder(
    (main): Sequential(
      (initial_conv_1-64): Conv2d(1, 64, kernel_size=(4, 4), stride=(2, 2), padding=(1, 1), bias=False)
      (initial_relu_64): LeakyReLU(negative_slope=0.2, inplace=True)
      (pyramid_64_128_conv): Conv2d(64, 128, kernel_size=(4, 4), stride=(2, 2), padding=(1, 1), bias=False)
      (pyramid_128_batchnorm): BatchNorm2d(128, eps=1e-05, momentum=0.1, affine=True, track_running_stats=True)
      (pyramid_128_relu): LeakyReLU(negative_slope=0.2, inplace=True)
      (pyramid_128_256_conv): Conv2d(128, 256, kernel_size=(4, 4), stride=(2, 2), padding=(1, 1), bias=False)
      (pyramid_256_batchnorm): BatchNorm2d(256, eps=1e-05, momentum=0.1, affine=True, track_running_stats=True)
      (pyramid_256_relu): LeakyReLU(negative_slope=0.2, inplace=True)
      (final_256_1_conv): Conv2d(256, 10, kernel_size=(4, 4), stride=(1, 1), bias=False)
    )
  )
  (decoder): Decoder(
    (main): Sequential(
      (initial_conv_10_256): ConvTranspose2d(10, 256, kernel_size=(4, 4), stride=(1, 1), bias=False)
      (initial_bn_256): BatchNorm2d(256, eps=1e-05, momentum=0.1, affine=True, track_running_stats=True)
      (initial_relu_256): ReLU(inplace=True)
      (pyramid_conv_256_128): ConvTranspose2d(256, 128, kernel_size=(4, 4), stride=(2, 2), padding=(1, 1), bias=False)
      (pyramid_bn_128): BatchNorm2d(128, eps=1e-05, momentum=0.1, affine=True, track_running_stats=True)
      (pyramid_relu_128): ReLU(inplace=True)
      (pyramid_conv_128_64): ConvTranspose2d(128, 64, kernel_size=(4, 4), stride=(2, 2), padding=(1, 1), bias=False)
      (pyramid_bn_64): BatchNorm2d(64, eps=1e-05, momentum=0.1, affine=True, track_running_stats=True)
      (pyramid_relu_64): ReLU(inplace=True)
      (final_conv_64_1): ConvTranspose2d(64, 1, kernel_size=(4, 4), stride=(2, 2), padding=(1, 1), bias=False)
      (final_tanh_1): Tanh()
    )
  )
)
oneSide: ONE_SIDED(
  (main): ReLU()
)
[  0/500][101/1875] [    1] (0.05 m) MMD2_D 0.004487 hinge -0.000000 L2_AE_X 0.195181 L2_AE_Y 0.049898 loss_D -1.893645 Loss_G 0.069122 f_X 0.012278 f_Y -0.000456 |gD| 7.9480 |gG| 0.0496
[  0/500][202/1875] [    2] (0.10 m) MMD2_D 0.004948 hinge -0.000000 L2_AE_X 0.138494 L2_AE_Y 0.030528 loss_D -1.281832 Loss_G 0.071807 f_X 0.013738 f_Y -0.000151 |gD| 6.7789 |gG| 0.0675
…
